start time 2020-11-08 00:28:50.011407
thres:  2000
conta:  0.1
epoch:  5
cycle: 1
original mice count:  25656
original elephant count:  4506
Model: "sequential_1"
_________________________________________________________________
Layer (type)                 Output Shape              Param #   
=================================================================
dense_1 (Dense)              (None, 387)               150156    
_________________________________________________________________
dropout_1 (Dropout)          (None, 387)               0         
_________________________________________________________________
dense_2 (Dense)              (None, 387)               150156    
_________________________________________________________________
dropout_2 (Dropout)          (None, 387)               0         
_________________________________________________________________
dense_3 (Dense)              (None, 256)               99328     
_________________________________________________________________
dropout_3 (Dropout)          (None, 256)               0         
_________________________________________________________________
dense_4 (Dense)              (None, 64)                16448     
_________________________________________________________________
dropout_4 (Dropout)          (None, 64)                0         
_________________________________________________________________
dense_5 (Dense)              (None, 20)                1300      
_________________________________________________________________
dropout_5 (Dropout)          (None, 20)                0         
_________________________________________________________________
dense_6 (Dense)              (None, 64)                1344      
_________________________________________________________________
dropout_6 (Dropout)          (None, 64)                0         
_________________________________________________________________
dense_7 (Dense)              (None, 256)               16640     
_________________________________________________________________
dropout_7 (Dropout)          (None, 256)               0         
_________________________________________________________________
dense_8 (Dense)              (None, 387)               99459     
=================================================================
Total params: 534,831
Trainable params: 534,831
Non-trainable params: 0
_________________________________________________________________
None
Train on 18477 samples, validate on 2054 samples
Epoch 1/5

   32/18477 [..............................] - ETA: 2:36:58 - loss: 1045.5565
   96/18477 [..............................] - ETA: 52:27 - loss: 906.2524   
…
