…
n_cache=1 (as a proper command-line flag, not via TF_XLA_FLAGS) or set the envvar XLA_FLAGS=--xla_hlo_profile.
start time 2020-11-08 00:35:34.429749
thres:  20000
conta:  0.1
epoch:  5
cycle: 1
original mice count:  111537
original elephant count:  1162
Model: "model_1"
__________________________________________________________________________________________________
Layer (type)                    Output Shape         Param #     Connected to                     
==================================================================================================
input_1 (InputLayer)            (None, 387)          0                                            
__________________________________________________________________________________________________
dense_1 (Dense)                 (None, 387)          150156      input_1[0][0]                    
__________________________________________________________________________________________________
dense_2 (Dense)                 (None, 256)          99328       dense_1[0][0]                    
__________________________________________________________________________________________________
dropout_1 (Dropout)             (None, 256)          0           dense_2[0][0]                    
__________________________________________________________________________________________________
dense_3 (Dense)                 (None, 64)           16448       dropout_1[0][0]                  
__________________________________________________________________________________________________
dropout_2 (Dropout)             (None, 64)           0           dense_3[0][0]                    
__________________________________________________________________________________________________
dense_4 (Dense)                 (None, 20)           1300        dropout_2[0][0]                  
__________________________________________________________________________________________________
dropout_3 (Dropout)             (None, 20)           0           dense_4[0][0]                    
__________________________________________________________________________________________________
dense_5 (Dense)                 (None, 2)            42          dropout_3[0][0]                  
__________________________________________________________________________________________________
dense_6 (Dense)                 (None, 2)            42          dropout_3[0][0]                  
__________________________________________________________________________________________________
lambda_1 (Lambda)               (None, 2)            0           dense_5[0][0]                    
                                                                 dense_6[0][0]                    
==================================================================================================
Total params: 267,316
Trainable params: 267,316
Non-trainable params: 0
__________________________________________________________________________________________________
Model: "model_2"
_________________________________________________________________
Layer (type)                 Output Shape              Param #   
=================================================================
input_2 (InputLayer)         (None, 2)                 0         
_________________________________________________________________
dense_7 (Dense)              (None, 2)                 6         
_________________________________________________________________
dense_8 (Dense)              (None, 20)                60        
_________________________________________________________________
dropout_4 (Dropout)          (None, 20)                0         
_________________________________________________________________
dense_9 (Dense)              (None, 64)                1344      
_________________________________________________________________
dropout_5 (Dropout)          (None, 64)                0         
_________________________________________________________________
dense_10 (Dense)             (None, 256)               16640     
_________________________________________________________________
dropout_6 (Dropout)          (None, 256)               0         
_________________________________________________________________
dense_11 (Dense)             (None, 387)               99459     
=================================================================
Total params: 117,509
Trainable params: 117,509
Non-trainable params: 0
_________________________________________________________________
Model: "model_3"
_________________________________________________________________
Layer (type)                 Output Shape              Param #   
=================================================================
input_1 (InputLayer)         (None, 387)               0         
_________________________________________________________________
model_1 (Model)              [(None, 2), (None, 2), (N 267316    
_________________________________________________________________
model_2 (Model)              (None, 387)               117509    
=================================================================
Total params: 384,825
Trainable params: 384,825
Non-trainable params: 0
_________________________________________________________________
Train on 80325 samples, validate on 8925 samples
Epoch 1/5

   32/80325 [..............................] - ETA: 59:13:08 - loss: 513.4349
   96/80325 [..............................] - ETA: 19:45:02 - loss: 433.0868
…
