start time 2020-11-08 00:23:50.439790
thres:  20000
conta:  0.1
epoch:  5
cycle: 1
original mice count:  111537
original elephant count:  1162
Model: "sequential_1"
_________________________________________________________________
Layer (type)                 Output Shape              Param #   
=================================================================
dense_1 (Dense)              (None, 387)               150156    
_________________________________________________________________
dropout_1 (Dropout)          (None, 387)               0         
_________________________________________________________________
dense_2 (Dense)              (None, 387)               150156    
_________________________________________________________________
dropout_2 (Dropout)          (None, 387)               0         
_________________________________________________________________
dense_3 (Dense)              (None, 256)               99328     
_________________________________________________________________
dropout_3 (Dropout)          (None, 256)               0         
_________________________________________________________________
dense_4 (Dense)              (None, 64)                16448     
_________________________________________________________________
dropout_4 (Dropout)          (None, 64)                0         
_________________________________________________________________
dense_5 (Dense)              (None, 20)                1300      
_________________________________________________________________
dropout_5 (Dropout)          (None, 20)                0         
_________________________________________________________________
dense_6 (Dense)              (None, 64)                1344      
_________________________________________________________________
dropout_6 (Dropout)          (None, 64)                0         
_________________________________________________________________
dense_7 (Dense)              (None, 256)               16640     
_________________________________________________________________
dropout_7 (Dropout)          (None, 256)               0         
_________________________________________________________________
dense_8 (Dense)              (None, 387)               99459     
=================================================================
Total params: 534,831
Trainable params: 534,831
Non-trainable params: 0
_________________________________________________________________
None
Train on 80325 samples, validate on 8925 samples
Epoch 1/5

   32/80325 [..............................] - ETA: 9:19:46 - loss: 854.6025
   64/80325 [..............................] - ETA: 4:41:14 - loss: 899.5605
…
